…
2021-02-04 18:45:39.868276: I tensorflow/core/common_runtime/gpu/gpu_device.cc:1261] Device interconnect StreamExecutor with strength 1 edge matrix:
2021-02-04 18:45:39.869179: I tensorflow/core/common_runtime/gpu/gpu_device.cc:1267]
2021-02-04 18:45:39.870616: I tensorflow/compiler/jit/xla_gpu_device.cc:99] Not creating XLA devices, tf_xla_enable_xla_devices not set
Model: "sequential"
_________________________________________________________________
Layer (type)                 Output Shape              Param #
=================================================================
conv2d (Conv2D)              (None, 30, 30, 16)        448
_________________________________________________________________
conv2d_1 (Conv2D)            (None, 30, 30, 32)        4640
_________________________________________________________________
conv2d_2 (Conv2D)            (None, 30, 30, 64)        18496
_________________________________________________________________
conv2d_3 (Conv2D)            (None, 10, 10, 128)       204928
_________________________________________________________________
max_pooling2d (MaxPooling2D) (None, 5, 5, 128)         0
_________________________________________________________________
flatten (Flatten)            (None, 3200)              0
_________________________________________________________________
dense (Dense)                (None, 120)               384120
_________________________________________________________________
dense_1 (Dense)              (None, 84)                10164
_________________________________________________________________
dense_2 (Dense)              (None, 10)                850
=================================================================
Total params: 623,646
Trainable params: 623,646
Non-trainable params: 0
_________________________________________________________________

2021-02-04 18:45:40.223173: I tensorflow/compiler/mlir/mlir_graph_optimization_pass.cc:116] None of the MLIR optimization passes are enabled (registered 2)
Epoch 1/50
4167/4167 [==============================] - 104s 25ms/step - loss: 0.0887 - accuracy: 0.1997 - val_loss: 0.0815 - val_accuracy: 0.3332
…
