…
holdout stock shape: (10, 483)
[INFO] Checking stock validity.
[INFO] Stock valid.
[INFO] Rehaping Dataset.
total trainX shape after reshape: (484, 7, 10)
total testX shape after reshape: (486, 7, 10)
total holdoutX shape after reshape: (483, 7, 10)
target shape train: 484
target shape test: 486
target shape holdout: 483
7
10
[INFO] Printing Tensorflow CNN Summary...
Model: "sequential"
_________________________________________________________________
Layer (type)                 Output Shape              Param #   
=================================================================
conv1d (Conv1D)              (None, 5, 16)             496       
_________________________________________________________________
batch_normalization (BatchNo (None, 5, 16)             64        
_________________________________________________________________
dropout (Dropout)            (None, 5, 16)             0         
_________________________________________________________________
flatten (Flatten)            (None, 80)                0         
_________________________________________________________________
dense (Dense)                (None, 32)                2592      
_________________________________________________________________
dense_1 (Dense)              (None, 16)                528       
_________________________________________________________________
dense_2 (Dense)              (None, 1)                 17        
=================================================================
Total params: 3,697
Trainable params: 3,633
Non-trainable params: 64
_________________________________________________________________

Epoch 1/2
 1/15 [>.............................] - ETA: 0s - loss: 19610.210916/15 [===============================] - 1s 59ms/step - loss: 32824.2109 - val_loss: 40168.8516
…
